digit_test.onnx (onnx, 22455 bytes, 10 tensors)

last.0.bias f4 [64]
0.20264864 -0.29151127 0.88567716 -0.6470956 -0.41493833 -0.6340571 1.1796219 0.119316325
0.7876544 -0.64180374 -1.1394913 -0.8154045 -0.97758853 0.28966978 0.2068606 0.90840375
-0.6780306 -0.61503327 0.6072061 -0.3896909 0.8811398 -0.086684965 0.81312543 -0.8251406
-0.3194074 0.34482363 0.19652571 0.032130204 0.4990395 0.7937024 -0.98023516 -0.3534406
0.74039334 -0.4161662 -0.15923579 -1.0597812 -0.6123231 0.036004454 -0.2095388 -0.5406042
-0.052510057 -0.49623045 -0.8906951 -0.77005297 -0.99152833 -0.44905186 0.7611522 0.13065659
0.15671124 -0.7454833 -0.47925007 -0.12100023 0.3043426 -0.98617977 -0.53222364 -0.71587294
-0.17879564 -0.33404085 -0.20571968 -0.49143726 -0.553882 -0.39628118 -0.61119723 -0.6030371
00000000: 2083 4f3e f740 95be bdbb 623f 0fa8 25bf
00000010: cc72 d4be 9151 22bf dafd 963f 1e5c f43d
00000020: b8a3 493f 404d 24bf dada 91bf 59be 50bf
00000030: 3e43 7abf 994f 943e 44d3 533e 268d 683f
00000040: 6a93 2dbf d272 1dbf dc71 1b3f 9185 c7be
00000050: 6192 613f e387 b1bd fd28 503f 6a3c 53bf
00000060: 5e89 a3be b98c b03e 093e 493e f69a 033d
00000070: 1b82 ff3e 1530 4b3f b1f0 7abf 2bf6 b4be
00000080: 6b8a 3d3f bc13 d5be b50e 23be e9a6 87bf
00000090: 35c1 1cbf 6879 133d 5791 56be 0965 0abf
000000a0: c914 57bd eb11 febe 9804 64bf 3122 45bf
000000b0: cdd4 7dbf 20ea e5be dfda 423f d7ca 053e
000000c0: e978 203e fed7 3ebf 4460 f5be f8ce f7bd
000000d0: cbd2 9b3e 4776 7cbf cf3f 08bf 7343 37bf
000000e0: 3416 37be 6707 abbe 2ea8 52be aa9d fbbe
000000f0: 36cb 0dbf 5ee5 cabe 6c77 1cbf a460 1abf

last.0.weight f4 [64, 1]
0.3766923 0.504806 -0.37083974 0.59516877 -0.2579706 0.4725773 -0.63594353 0.30336586
0.5776225 -0.77124685 0.83397806 0.5140433 0.4623349 -0.07203595 0.20993967 -0.327147
0.4227485 0.45712206 -0.7793026 0.42042297 -0.52155155 -0.27023584 -0.51314294 0.5149363
-0.8349835 -0.65255904 -0.46235475 -0.63886327 -0.13568053 -1.1602361 0.65114015 -0.8926892
0.4756824 0.40684775 -0.36750048 0.8019553 0.44965607 0.5057111 -0.06802637 -0.35507792
0.02971955 -0.30760303 0.60764545 0.5773782 0.70814294 -0.46972084 0.32672682 -0.0996373
0.20006967 -0.6440084 -1.0260596 -0.43359283 -0.82200587 0.6044117 0.43977788 0.5638367
0.008673086 -0.1311773 0.4756737 -0.7507977 0.42935073 -0.7241909 0.472196 -0.38341954
00000000: d0dd c03e f73a 013f b5de bdbe fb5c 183f
00000010: b914 84be a7f5 f13e 32cd 22bf c552 9b3e
00000020: 11df 133f 6f70 45bf 967f 553f 5798 033f
00000030: 29b7 ec3e 9687 93bd 6dfa 563e d07f a7be
00000040: 7e72 d83e e70b ea3e 6080 47bf ae41 d73e
00000050: 6784 05bf 5a5c 8abe 565d 03bf ded2 033f
00000060: 7bc1 55bf 1c0e 27bf c3b9 ecbe 8b8c 23bf
00000070: d6ef 0abe 9e82 94bf 1fb1 263f 4887 64bf
00000080: a58c f33e 594e d03e 0629 bcbe f14c 4d3f
00000090: 5239 e63e 4876 013f 6951 8bbd c6cc b5be
000000a0: 6a76 f33c 257e 9dbe a78e 1b3f 0fcf 133f
000000b0: db48 353f 407f f0be bd48 a73e a40e ccbd
000000c0: 10df 4c3e bcdd 24bf ec55 83bf e1ff ddbe
000000d0: fa6e 52bf baba 1a3f 912a e13e 9a57 103f
000000e0: 8f19 0e3c 5853 06be 818b f33e 4734 40bf
000000f0: dcd3 db3e 9364 39bf adc3 f13e 914f c4be

last.1.bias f4 [64]
-0.38009048 -0.43193573 -0.008074635 -0.13812591 0.3780143 0.24576548 0.454617 -0.44987044
-0.41478908 0.43139997 0.2219633 0.32059944 0.05941085 -0.2874262 -0.3767547 0.06287446
-0.22846259 0.2952421 0.23000166 0.15736693 0.42209402 0.07882824 0.44538122 0.17535365
0.69646657 0.15039875 0.13134384 1.1053221 -0.27914563 0.30605194 0.02115001 0.35064185
-0.40578678 0.21218053 0.73373264 0.14295433 0.25489005 -0.43046167 -0.14871128 0.4091822
-0.31133983 0.4129852 0.18647929 -0.017937472 0.103150494 0.3848795 -0.417688 -0.2934043
-0.38663214 0.49496087 0.6482614 0.89300406 0.5362833 0.1166913 0.1488304 0.13585302
-0.38334647 0.06652342 -0.39286786 0.43286467 0.2915212 0.46815646 0.117409594 0.39445195
00000000: 389b c2be ae26 ddbe 794b 04bc e170 0dbe
00000010: 178b c13e f2a9 7b3e 8fc3 e83e 6b55 e6be
00000020: 3c5f d4be 75e0 dc3e 594a 633e 9c25 a43e
00000030: cb58 733d 8729 93be fee5 c0be 53c4 803d
00000040: 19f2 69be f929 973e 8e85 6b3e cc24 213e
00000050: b51c d83e b370 a13d 0209 e43e e88f 333e
00000060: a24b 323f 2102 1a3e 007f 063e 327b 8d3f
00000070: 2dec 8ebe d7b2 9c3e c942 ad3c 5487 b33e
00000080: 49c3 cfbe da45 593e e7d5 3b3f 9f62 123e
00000090: f380 823e 7965 dcbe c547 18be 5480 d13e
000000a0: ef67 9fbe cc72 d33e 6df4 3e3e 9bf1 92bc
000000b0: 9140 d33d ed0e c53e 34db d5be 1739 96be
000000c0: a6f4 c5be 836b fd3e 76f4 253f ea9b 643f
000000d0: dd49 093f d9fb ee3d ff66 183e 0e1d 0b3e
000000e0: fd45 c4be 6e3d 883d fa25 c9be 70a0 dd3e
000000f0: 4442 953e 34b2 ef3e 7174 f03d 9bf5 c93e

last.1.weight f4 [64]
0.63534254 0.549449 1.2896248 0.8374597 0.60549945 1.5617774 1.4662304 0.585165
0.6561851 0.56434125 1.3103023 2.0420024 1.1811248 0.80423385 0.688425 1.2478848
0.7343754 1.4899272 1.292238 1.190972 1.6140163 1.1448175 1.4021821 1.1887401
0.54483324 1.5544456 1.3804251 1.6925434 0.858312 1.4130615 1.167726 0.62163275
0.66582495 1.3866894 1.368422 1.4233478 1.7371141 0.59680486 0.8861455 0.6549763
0.7353414 0.64907134 1.4555397 1.0137913 1.4334443 0.658518 0.6314182 0.84410214
0.6509153 0.5537849 0.3900869 1.53334 1.4730741 1.157227 1.3219727 1.3303189
0.6203413 0.9322224 0.6171119 0.55706257 1.3815737 0.60133016 1.4058515 0.5652787
00000000: cfa5 223f b1a8 0c3f 6d12 a53f c263 563f
00000010: 0302 1b3f 52e8 c73f 70ad bb3f 60cd 153f
00000020: bffb 273f ab78 103f fcb7 a73f 2bb0 0240
00000030: 192f 973f 45e2 4d3f 9f3c 303f b0ba 9f3f
00000040: 0700 3c3f efb5 be3f 0e68 a53f c571 983f
00000050: 1698 ce3f 6189 923f b47a b33f a328 983f
00000060: 317a 0b3f 13f8 c63f c5b1 b03f 43a5 d83f
00000070: 56ba 5b3f 33df b43f 0c78 953f 5323 1f3f
00000080: 8173 2a3f 0a7f b13f 7428 af3f 4330 b63f
00000090: c159 de3f 34c8 183f 6eda 623f 87ac 273f
000000a0: 563f 3c3f 8a29 263f 204f ba3f eac3 813f
000000b0: 1a7b b73f a394 283f a0a4 213f 1417 583f
000000c0: 63a2 263f d9c4 0d3f 78b9 c73e 7c44 c43f
000000d0: b18d bc3f 0420 943f 6736 a93f e447 aa3f
000000e0: b0ce 1e3f 21a6 6e3f 0cfb 1d3f a79b 0e3f
000000f0: 68d7 b03f c6f0 193f f1f2 b33f 1bb6 103f

last.3.bias f4 [64]
-0.24756609 -0.009298475 -0.13051353 -0.08583083 -0.15058982 -0.26031137 -0.04109792 -0.2282919
0.2503544 0.1514933 -0.14178921 -0.06369626 -0.102674656 -0.15003426 -0.03877315 0.061679065
0.049752973 -0.2092253 0.04905969 0.04942468 -0.098493606 -0.30106458 0.07068399 -0.25860846
-0.008490513 -0.101386085 -0.10166857 -0.09609299 -0.12329107 0.022714585 -0.03259108 -0.18000416
0.2467854 0.269084 -0.12658623 0.36649436 -0.10379789 -0.06058442 -0.20029527 -0.058947068
-0.2868427 0.046920687 -0.2583123 -0.022716952 -0.2143708 -0.055197895 -0.080665566 -0.09185657
0.08512921 0.09797703 -0.15026243 -0.216483 0.03481681 -0.104703136 -0.057415944 0.013712931
0.018067528 -0.26382646 -0.109959394 0.04976854 0.011712365 0.14889282 -0.18425062 0.18090844
00000000: f781 7dbe a258 18bc 57a5 05be 13c8 afbd
00000010: 3834 1abe 8847 85be 4b56 28bd 5ac5 69be
00000020: 742e 803e 0f21 1b3e 3131 11be 2f73 82bd
00000030: 1747 d2bd 95a2 19be 98d0 1ebd 30a3 7c3d
00000040: c6c9 4b3d 283f 56be d0f2 483d 8971 4a3d
00000050: 04b7 c9bd 2325 9abe c5c2 903d 5468 84be
00000060: cb1b 0bbc 82a3 cfbd 9c37 d0bd 67cc c4bd
00000070: 0780 fcbd f013 ba3c 397e 05bd 0353 38be
00000080: 50b5 7c3e 61c5 893e d29f 01be 26a5 bb3e
00000090: fd93 d4bd 5e27 78bd 341a 4dbe 7b72 71bd
000000a0: 0cdd 92be e82f 403d 8341 84be e718 babc
000000b0: 0584 5bbe 3017 62bd fd33 a5bd 4c1f bcbd
000000c0: 3958 ae3d 2ea8 c83d 65de 19be b8ad 5dbe
000000d0: 129c 0e3d 996e d6bd fb2c 6bbd 34ac 603c
000000e0: 5a02 943c 4314 87be 6432 e1bd 19da 4b3d
000000f0: 38e5 3f3c 5c77 183e 32ac 3cbe 1040 393e

last.3.weight f4 [64, 64]
-0.038262263 -0.13102745 0.08623897 -0.028161807 0.0087038 -0.03078065 0.0127159115 -0.1971438
-0.26645052 0.019272137 -0.04718233 -0.7020993 -0.009575107 -0.23052695 -0.06863114 -0.2143747
-0.09447049 -0.020031141 0.07575998 0.11888894 0.15281272 -0.09942063 0.14717804 -0.13108496
0.13224582 -0.06210091 0.11284265 0.17184559 -0.034675878 0.08125104 -0.034412377 0.074818596
-0.048180778 -0.07010445 0.22004329 -0.2177432 -0.3215631 -0.16784531 -0.08876254 0.246121
-0.11645731 0.05981008 -0.17038028 -0.08186925 -0.00034374872 0.10717352 -0.23471935 -0.13646512
-0.2400992 0.1927259 0.22203194 0.15018854 0.08013888 -0.0149245 -0.03192254 -0.07276184
0.0045745233 0.107786074 -0.08281652 0.119628094 -0.37601343 0.15719154 0.05007127 0.059923146
0.117536694 0.112592205 -0.08830309 0.006923576 0.044114064 0.36073396 -0.04071655 0.07012023
-0.0762439 -0.08825979 0.24719998 0.25538704 0.10101686 -0.06556575 -0.04704642 -0.19130534
-0.009279108 0.34142384 0.15764861 0.23147973 -0.18374082 0.28084794 -0.0980585 0.26009125
0.057420373 0.100181535 0.17016715 0.28721827 -0.08601787 0.22735624 0.031589787 -0.039128453
-0.0903557 0.4639213 0.34328437 0.38766447 0.08894475 -0.09666313 -0.014896639 0.07026051
0.09426374 0.09152384 0.4111382 0.07604483 0.35733587 -0.123565525 -0.08227095 -0.09710826
0.08269435 -0.09765674 -0.004588526 0.22989555 0.12541106 0.03621236 0.24855685 0.27453306
-0.0025716478 0.060755502 -0.01190909 -0.09842591 -0.038342603 -0.048951034 0.12090873 -0.13665517
0.03033463 -0.19374295 0.5852219 -0.29303554 -0.34947553 -0.11718456 0.7498785 -0.028712193
0.024439367 0.21001062 -0.6386269 -0.39269567 -0.6052961 0.07678205 0.16655481 0.37873933
-0.30657843 0.09427871 -0.02727428 -0.12596929 0.56396496 -0.2547795 0.7133174 -0.73325557
-0.5410184 -0.52416104 -0.42103073 -1.3428217 0.20810696 -0.49952832 -0.65086704 0.06895152
0.10882199 0.08189988 -1.2909254 -0.2670424 -0.4062224 -0.1997757 0.15437472 -0.14788097
-0.07053673 -0.29742628 -0.23103553 -0.45457193 -0.17224884 0.0071269954 0.048698034 0.09541729
-0.054703858 0.13574375 -0.323359 -1.4468583 -0.61947876 -0.5858779 0.14041126 -0.22351512
-0.09543478 0.105621986 -0.03267477 -0.042733394 0.11165733 -0.081847474 0.23417108 -0.08198407
-0.2161648 -0.16754575 0.14836973 -0.023269549 -0.04088478 -0.099703774 -0.020340756 -0.25104353
-0.22265036 0.08836287 0.0066852584 -0.068743065 -0.13782524 -0.16017559 -0.07315676 -0.044787906
-0.12750173 0.06093269 -0.02163765 0.1658544 0.058683723 -0.23471895 0.01762111 -0.17325288
-0.010748194 -0.027161267 0.16216518 -0.11767966 -0.11267184 0.06843755 -0.02450589 0.18875179
-0.031959213 0.081985146 -0.15350866 -0.039640766 0.15505703 -0.14300036 -0.03866125 0.219263
-0.16555706 0.005295141 -0.16282032 -0.070326485 0.047939774 0.13212503 -0.095002376 -0.122126244
-0.250333 0.11931856 0.21177118 0.069760635 -0.023893055 -0.07361445 -0.04825106 0.027758643
-0.026442716 0.11010473 -0.035897072 -0.003936408 0.21453354 0.019226307 0.76853395 0.16067721
00000000: e4b8 1cbd 0f2c 06be 0f9e b03d 97b3 e6bc
00000010: 629a 0e3c b427 fcbc 6656 503c 10e0 49be
00000020: 346c 88be 9ae0 9d3c 4242 41bd c8bc 33bf
00000030: e9e0 1cbc 420f 6cbe 7c8e 8cbd 0b85 5bbe
00000040: bf79 c1bd 5918 a4bc 0c28 9b3d 0b7c f33d
00000050: f07a 1c3e 0b9d cbbd d7b5 163e 233b 06be
00000060: 736b 073e 865d 7ebd 0c1a e73d 4af8 2f3e
00000070: 4b08 0ebd f266 a63d fef3 0cbd 7e3a 993d
00000080: 3559 45bd ec92 8fbd 0753 613e 13f8 5ebe
00000090: eba3 a4be a4df 2bbe 22c9 b5bd 2507 7c3e
000000a0: 2c81 eebd 6afb 743d 2b78 2ebe 11ab a7bd
000000b0: 2c39 b4b9 ca7d db3d 455a 70be 83bd 0bbe
000000c0: 91dc 75be f059 453e 575c 633e 06cb 193e
000000d0: da1f a43d e485 74bc 36c1 02bd 2904 95bd
000000e0: e2e5 953b f2be dc3d b59b a9bd 93ff f43d
000000f0: d584 c0be d2f6 203e 8817 4d3d f971 753d
00000100: 14b7 f03d be96 e63d 40d8 b4bd 2adf e23b
00000110: f3b0 343d 1fb2 b83e 66c6 26bd 329b 8f3d
00000120: c325 9cbd 8cc1 b4bd fe21 7d3e 17c2 823e
00000130: ede1 ce3d 5647 86bd bfb3 40bd 8ce5 43be
00000140: 6607 18bc 1bcf ae3e a36e 213e 0609 6d3e
00000150: 8e26 3cbe 4dcb 8f3e e5d2 c8bd ae2a 853e
00000160: a031 6b3d fa2b cd3d 4c40 2e3e 460e 933e
00000170: 232a b0bd 13d0 683e 4b64 013d 2845 20bd
00000180: 690c b9bd 1887 ed3e f8c2 af3e f57b c63e
00000190: aa28 b63d 52f7 c5bd 0811 74bc bee4 8f3d
000001a0: 590d c13d da70 bb3d b580 d23e 64bd 9b3d
000001b0: baf4 b63e ec0f fdbd ac7d a8bd b2e0 c6bd
000001c0: a85b a93d 4200 c8bd 595b 96bb bd69 6b3e
000001d0: c26b 003e 6953 143d b085 7e3e 998f 8c3e
000001e0: 1789 28bb c3da 783d 581e 43bc 8693 c9bd
000001f0: 220d 1dbd e180 48bd ff9e f73d 55ef 0bbe
00000200: 5480 f83c 8d64 46be 1ad1 153f c108 96be
00000210: 75ee b2be 75fe efbd 0af8 3f3f d535 ebbc
00000220: 1135 c83c 060d 573e 0d7d 23bf 680f c9be
00000230: aff4 1abf e83f 9d3d 588d 2a3e 1fea c13e
00000240: d9f7 9cbe 3215 c13d 506e dfbc 18fe 00be
00000250: 0260 103f 7572 82be f89b 363f a3b6 3bbf
00000260: 2f80 0abf 6b2f 06bf 5791 d7be 95e1 abbf
00000270: fe19 553e 2dc2 ffbe 399f 26bf 7436 8d3d
00000280: 10de de3d 20bb a73d 0b3d a5bf c8b9 88be
00000290: 62fc cfbe 0092 4cbe 6814 1e3e 1c6e 17be
000002a0: 9075 90bd 4248 98be 9494 6cbe a7bd e8be
000002b0: 0062 30be 9289 e93b 9777 473d 246a c33d
000002c0: 2711 60bd 6900 0b3e 508f a5be a732 b9bf
000002d0: 2996 1ebf 18fc 15bf f8c7 0f3e 26e1 64be
000002e0: 4f73 c3bd 5750 d83d fbd5 05bd 3609 2fbd
000002f0: 99ac e43d a69f a7bd 8bca 6f3e 44e7 a7bd
00000300: 4e5a 5dbe 1d91 2bbe 3cee 173e c89f bebc
00000310: cd76 27bd 7e31 ccbd a8a1 a6bc c788 80be
00000320: 75fe 63be 98f7 b43d 0310 db3b 2ac9 8cbd
00000330: 0f22 0dbe 1205 24be 36d3 95bd 8673 37bd
00000340: d08f 02be 8e94 793d 7141 b1bc bcd5 293e
00000350: 585e 703d 2a5a 70be 255a 903c 3469 31be
00000360: 3119 30bc 4e81 debc a10e 263e 0902 f1bd
00000370: 7ec0 e6bd fc28 8c3d 94c0 c8bc 2648 413e
00000380: aae7 02bd d4e7 a73d 6031 1dbe 5b5e 22bd
00000390: 45c7 1e3e b06e 12be 425b 1ebd 7b86 603e
000003a0: ca87 29be dd82 ad3b 5fba 26be 5507 90bd
000003b0: 7f5c 443d c94b 073e 9b90 c2bd 531d fabd
000003c0: a62b 80be 4a5d f43d 8bda 583e aade 8e3d
000003d0: 5ebb c3bc 2cc3 96bd e7a2 45bd 1866 e33c
000003e0: 659e d8bc 977e e13d cf08 13bd fcfc 80bb
000003f0: aeae 5b3e 7d80 9d3c a4be 443f 9188 243e

last.4.bias f4 [64]
0.25484952 0.48086998 0.22722861 -0.06594625 -0.14000365 -0.08891449 0.13504368 -0.11385089
0.728378 0.5509287 -0.111571886 0.27197438 0.06298719 -0.09048303 -0.11701217 0.072215684
0.35356715 0.08536668 0.45335558 0.4371146 0.18250632 0.38062024 0.4746836 0.11156776
0.3994579 0.065052934 0.25751817 -0.044902567 0.07048214 0.10903752 0.3173584 -0.13440992
0.39937767 0.32960653 0.15735318 0.6099066 -0.17020316 0.123392515 -0.07348945 -0.14871906
0.20965336 0.13892622 0.047543447 0.44268486 -0.1111142 -0.0803719 0.3460713 0.051537503
0.4448194 0.16540238 0.4115139 -0.1371221 0.19377835 -0.013992571 0.2898828 -0.0720571
0.20567332 -0.043403003 0.15767619 0.539244 0.18551576 -0.08654984 0.074367434 0.421171
00000000: a37b 823e 9734 f63e 9eae 683e d40e 87bd
00000010: 1e5d 0fbe cd18 b6bd e448 0a3e a82a e9bd
00000020: fb76 3a3f aa09 0d3f cd7f e4bd 3a40 8b3e
00000030: 6eff 803d 2b4f b9bd 14a4 efbd d1e5 933d
00000040: c106 b53e bad4 ae3d 391e e83e 7ccd df3e
00000050: f0e2 3a3e a8e0 c23e bb09 f33e a37d e43d
00000060: bf85 cc3e 793a 853d 6cd9 833e c1eb 37bd
00000070: f158 903d 104f df3d cd7c a23e c1a2 09be
00000080: 3b7b cc3e 30c2 a83e 3121 213e d722 1c3f
00000090: bd49 2ebe 37b5 fc3d a381 96bd cf49 18be
000000a0: 5faf 563e ad42 0e3e ebbc 423d 97a7 e23e
000000b0: d78f e3bd 069a a4bd 4230 b13e fd18 533d
000000c0: 5ebf e33e 3e5f 293e f3b1 d23e bc69 0cbe
000000d0: d56d 463e 1941 65bc 856b 943e ac92 93bd
000000e0: 079c 523e 59c7 31bd de75 213e e50b 0a3f
000000f0: d8f7 3d3e 0b41 b1bd f44d 983d baa3 d73e

last.4.weight f4 [64]
1.3978598 1.7010028 2.090098 0.7129316 0.82604307 0.9738728 1.681372 0.9631088
2.1169338 2.0851877 0.86952937 1.5689876 1.179143 0.7366468 0.76667863 1.7534088
2.0141776 1.2348276 1.5307261 1.6598563 1.4037135 1.4347577 1.6405841 2.1842153
1.6867408 1.3971913 1.5090158 0.64890075 1.2422781 1.5046047 1.5166374 1.4511439
1.8571334 1.5763211 2.627835 2.0798943 0.8920506 1.7094669 0.93760973 0.8751061
1.4866642 1.4848298 0.7729195 2.3514695 1.4712524 0.85302895 1.7808914 0.83666635
1.9820237 1.102145 1.6629827 0.92474675 2.0024025 1.3318341 1.8681823 0.8678808
1.5731041 1.5061053 1.5335307 1.4245065 1.7628136 0.8760508 1.2706114 1.9846687
00000000: 12ed b23f 76ba d93f 2ac4 0540 af82 363f
00000010: 8f77 533f ba4f 793f 3337 d73f 4c8e 763f
00000020: d87b 0740 b773 0540 7a99 5e3f 96d4 c83f
00000030: 28ee 963f e294 3c3f 0d45 443f b36f e03f
00000040: 49e8 0040 d50e 9e3f d5ee c33f 2c76 d43f
00000050: e2ac b33f 24a6 b73f a9fe d13f 2fca 0b40
00000060: 1fe7 d73f 2ad7 b23f 6e27 c13f 5c1e 263f
00000070: f802 9f3f e396 c03f 2d21 c23f 15bf b93f
00000080: 8cb6 ed3f e4c4 c93f 732e 2840 fd1c 0540
00000090: 6e5d 643f d0cf da3f 3107 703f f406 603f
000000a0: 034b be3f e70e be3f 0dde 453f 7a7e 1640
000000b0: 0052 bc3f 1b60 5a3f 40f4 e33f c42f 563f
000000c0: f4b2 fd3f 1613 8d3f 9edc d43f 34bc 6c3f
000000d0: 5d27 0040 8a79 aa3f 9920 ef3f 702d 5e3f
000000e0: 7a5b c93f 0fc8 c03f bc4a c43f 3b56 b63f
000000f0: e0a3 e13f dd44 603f 65a3 a23f a009 fe3f

last.6.bias f4 [10]
0.13223492 -0.12048432 0.051840972 -0.14392897 -0.04467205 -0.109274924 -0.119184695 -0.17754735
-0.12187142 0.3827726
00000000: 9768 073e 7cc0 f6bd 3357 543d 1e62 13be
00000010: 0afa 36bd 88cb dfbd 1b17 f4bd f9ce 35be
00000020: b997 f9bd c5fa c33e

last.6.weight f4 [10, 64]
-0.17192984 0.23247099 -0.9162033 -0.025826193 -0.18375266 -0.019386798 0.042888176 -0.26594326
-0.5064539 0.07752556 -0.16365364 -0.31136835 0.27760723 0.044755045 -0.059005283 0.013889215
-0.22288318 0.3191751 -0.07805981 -0.3200642 0.38195634 -0.38674027 -0.29326707 0.26238602
-0.41219574 0.20057152 -0.33014217 -0.08289383 -0.10397185 0.14925796 -0.19743632 -0.3963072
-0.3844412 -0.11811482 0.8463901 0.19561768 -0.037000213 0.25260493 0.009954911 -0.12561145
0.13994674 0.16919918 -0.019215647 -0.68718034 -0.549468 0.04993611 -0.054291256 -0.00620592
-0.37690976 -1.4486495 -0.1827303 -0.009241325 0.048201643 0.30413067 -0.27917308 0.018306173
0.19611965 0.113695554 -0.5086006 0.37314257 -0.15695368 0.23478681 -0.36786014 0.022558218
-0.2695555 -0.20571603 0.53472567 0.063117474 0.26329806 0.2549625 0.075340495 0.09113694
0.02279305 -0.017912988 -0.036188416 -0.29272306 0.25077847 -0.1834461 0.10695216 0.5727011
-0.41504022 -0.29588836 -0.12085291 0.0791624 -0.40541846 0.23672253 -0.5093668 -0.66204375
-0.1757961 -0.08203414 -0.29055798 -0.10610229 0.41177616 0.20159118 -0.43930766 0.065861605
0.26623845 0.37402943 0.30735415 0.007183505 -0.06597531 0.5436879 0.11333542 0.036020305
-0.02582367 0.16877948 -0.076931536 -0.4529009 0.4434094 0.05079964 -0.30133447 0.054967884
-0.13736004 0.43646187 0.09626925 -0.024120813 -0.28667808 0.15511627 -0.4882925 0.045874294
-0.18417425 0.41466883 -0.36413455 -0.4791345 -0.15739563 0.24150963 0.21199657 0.08179506
0.1071875 -0.46206933 0.0005635005 0.06813838 0.018652232 -0.19853647 -0.80060315 0.072902866
-0.090456866 -0.27352455 -0.052188437 -0.72526175 -0.4446898 -0.18260238 -0.19360083 -0.107228175
0.24522126 -0.28780308 -0.3989841 0.25675356 -0.17978905 0.12748133 0.1176215 0.4596007
-0.670206 0.37073866 0.067416236 -0.07536723 -0.2596649 0.2556294 0.22871797 0.48384947
-0.27851015 -0.12973727 -1.0311908 -0.13408016 -0.2024496 -0.17884372 0.076851085 -0.06616775
-0.5429179 0.39430392 0.004420192 0.20127912 0.34474972 -0.16736294 -0.8003798 0.0018729903
-0.2695151 -0.16045706 0.1447891 -0.07063873 0.27104828 -0.3383152 -0.57406723 -0.17602792
0.2338062 0.13960838 -0.30697253 -0.5259827 0.250764 -0.47771528 0.32224256 -0.24850345
-0.46986842 -0.6395119 -0.9274473 0.17622063 -0.20581871 -0.08793044 -0.23871075 -0.14737236
-0.20067255 -0.3101933 -0.06801493 -0.065581694 -0.4632316 0.18555948 -0.06350978 -0.5727285
0.6458484 -0.4532906 -0.4586055 0.4033441 -0.35112277 0.18467611 0.37657112 0.6449806
-0.22910315 0.04017168 0.15819831 -0.075069435 -0.47924998 0.17076617 0.2982108 -0.19240503
-0.25374964 -0.27570653 -0.370371 -0.29438266 -0.2950122 -0.83510244 -0.05221856 0.070928395
-0.4985299 -0.17741174 -0.15068994 0.52546537 -0.829871 -0.2323575 -0.31134847 -0.02147461
-0.2826328 -0.24797317 0.21836907 0.028089909 0.15756597 -0.024604075 0.24562302 -0.28733173
0.42815286 -0.6470351 -0.58990437 -0.21514687 0.51101696 -0.15390393 -0.39057696 -0.42955682
00000000: 600e 30be e00c 6e3e 4d8c 6abf 7491 d3bc
00000010: a829 3cbe 10d1 9ebc 83ab 2f3d b729 88be
00000020: f6a6 01bf b9c5 9e3d d294 27be ac6b 9fbe
00000030: 8922 8e3e 1151 373d 86af 71bd 978f 633c
00000040: 7d3b 64be eb6a a33e d2dd 9fbd 74df a3be
00000050: c88f c33e d202 c6be 1a27 96be 7657 863e
00000060: 520b d3be 9f62 4d3e 6508 a9be 3ec4 a9bd
00000070: 31ef d4bd 14d7 183e bf2c 4abe c7e8 cabe
00000080: 7ad5 c4be 2fe6 f1bd 06ad 583f 0050 483e
00000090: 898d 17bd 6f55 813e ec19 233c 4aa0 00be
000000a0: 334e 0f3e 8d42 2d3e 226a 9dbc 0deb 2fbf
000000b0: efa9 0cbf ce89 4c3d 8260 5ebd 085b cbbb
000000c0: 51fa c0be 596d b9bf a71d 3bbe ed68 17bc
000000d0: 166f 453d 04b7 9b3e c6ef 8ebe d4f6 953c
000000e0: 97d3 483e 37d9 e83d a633 02bf 8b0c bf3e
000000f0: 77b8 20be f46b 703e 2a58 bcbe 03cc b83c
00000100: 2e03 8abe 39a7 52be c8e3 083f bc43 813d
00000110: 01cf 863e 728a 823e 1e4c 9a3d 01a6 ba3d
00000120: 7eb8 ba3c 42be 92bc 4e3a 14bd ccdf 95be
00000130: 0966 803e 4bd9 3bbe bc09 db3d 8a9c 123f
00000140: 2780 d4be ae7e 97be bb81 f7bd e51f a23d
00000150: 0293 cfbe 6467 723e dd65 02bf b37b 29bf
00000160: e503 34be 8401 a8bd 04c4 94be 284c d9bd
00000170: 53d4 d23e eb6d 4e3e efec e0be 73e2 863d
00000180: 6850 883e c980 bf3e 865d 9d3e 9c63 eb3b
00000190: 101e 87bd 212f 0b3f 671c e83d 078a 133d
000001a0: 298c d3bc 87d4 2c3e 488e 9dbd a0e2 e7be
000001b0: 8f06 e33e 4913 503d 8348 9abe 0126 613d
000001c0: 1ca8 0cbe ee77 df3e d028 c53d 0399 c5bc
000001d0: 78c7 92be cdd6 1e3e 7901 fabe afe6 3b3d
000001e0: 2d98 3cbe 794f d43e d86f babe 1e51 f5be
000001f0: 522c 21be 4d4e 773e a115 593e 2b84 a73d
00000200: 1f85 db3d 5a94 ecbe e1b7 133a 238c 8b3d
00000210: 91cc 983c 254d 4bbe 54f4 4cbf 194e 953d
00000220: 7341 b9bd 690b 8cbe 8bc3 55bd c1aa 39bf
00000230: 62ae e3be 1efc 3abe 4c3f 46be 729a dbbd
00000240: 481b 7b3e ed5a 93be a547 ccbe 3475 833e
00000250: 9f1a 38be 778a 023e 8ae3 f03d c850 eb3e
00000260: 9f92 2bbf 75d1 bd3e 8611 8a3d 225a 9abd
00000270: ccf2 84be dbe1 823e 0b35 6a3e 1ebb f73e
00000280: e298 8ebe d9d9 04be 0ffe 83bf 4f4c 09be
00000290: f34e 4fbe cf22 37be 1a64 9d3d f582 87bd
000002a0: abfc 0abf 34e2 c93e 42d7 903b 1d1c 4e3e
000002b0: 0983 b03e 3161 2bbe b1e5 4cbf 207f f53a
000002c0: e2fd 89be db4e 24be 9843 143e 0aab 90bd
000002d0: d7c6 8a3e a637 adbe 12f6 12bf aa40 34be
000002e0: e46a 6f3e 80f5 0e3e 812b 9dbe cda6 06bf
000002f0: 2464 803e 1997 f4be fafc a43e b077 7ebe
00000300: 9892 f0be 0db7 23bf 306d 6dbf 2e73 343e
00000310: 24c2 52be e014 b4bd 9770 74be c8e8 16be
00000320: 1b7d 4dbe a8d1 9ebe 694b 8bbd b24f 86bd
00000330: b12c edbe 4e03 3e3e 6a11 82bd 569e 12bf
00000340: 5256 253f b515 e8be 57ce eabe 1e83 ce3e
00000350: 5dc6 b3be bc1b 3d3e eecd c03e 731d 253f
00000360: 049a 6abe 0f8b 243d bdfe 213e 01be 99bd
00000370: 4160 f5be 54dd 2e3e 16af 983e d305 45be
00000380: 79eb 81be 6829 8dbe 45a1 bdbe 53b9 96be
00000390: d70b 97be 46c9 55bf 21e3 55bd e842 913d
000003a0: 503f ffbe 6cab 35be 774e 1abe e684 063f
000003b0: 6d72 54bf 20ef 6dbe 1169 9fbe 85eb afbc
000003c0: 3fb5 90be aeec 7dbe 249c 5f3e cf1c e63c
000003d0: f958 213e 7c8e c9bc 9a84 7b3e 251d 93be
000003e0: da36 db3e 18a4 25bf f903 17bf 764f 5cbe
000003f0: 02d2 023f fe98 1dbe b4f9 c7be dfee dbbe
